…
              (2): QuantizedConvReLU2d(128, 128, kernel_size=(3, 3), stride=(1, 1), scale=0.05400737002491951, zero_point=0, padding=(1, 1))
              (3): Identity()
              (4): Identity()
              (5): QuantizedConv2d(128, 128, kernel_size=(3, 3), stride=(1, 1), scale=0.03531887009739876, zero_point=68, padding=(1, 1), bias=False)
            )
            (skip_add): QFunctional(
              scale=0.06560367345809937, zero_point=69
              (activation_post_process): Identity()
            )
          )
        )
        (3): Sequential(
<<<<<<< HEAD
=======
          (0): DownSample(
            (block): Sequential(
              (0): BatchNorm2d(128, eps=1e-05, momentum=0.1, affine=True, track_running_stats=True)
              (1): ReLU(inplace=True)
              (2): Conv2d(128, 128, kernel_size=(3, 3), stride=(2, 2), padding=(1, 1), bias=False)
            )
          )
          (1): ResBlock(
            (block): Sequential(
              (0): BatchNorm2d(128, eps=1e-05, momentum=0.1, affine=True, track_running_stats=True)
              (1): ReLU(inplace=True)
              (2): ConvReLU2d(
                (0): Conv2d(128, 128, kernel_size=(3, 3), stride=(1, 1), padding=(1, 1))
                (1): ReLU(inplace=True)
              )
              (3): Identity()
              (4): Identity()
              (5): Conv2d(128, 128, kernel_size=(3, 3), stride=(1, 1), padding=(1, 1), bias=False)
            )
            (skip_add): FloatFunctional(
              (activation_post_process): Identity()
            )
          )
          (2): ResBlock(
            (block): Sequential(
              (0): BatchNorm2d(128, eps=1e-05, momentum=0.1, affine=True, track_running_stats=True)
              (1): ReLU(inplace=True)
              (2): ConvReLU2d(
                (0): Conv2d(128, 128, kernel_size=(3, 3), stride=(1, 1), padding=(1, 1))
                (1): ReLU(inplace=True)
              )
              (3): Identity()
              (4): Identity()
              (5): Conv2d(128, 128, kernel_size=(3, 3), stride=(1, 1), padding=(1, 1), bias=False)
            )
            (skip_add): FloatFunctional(
              (activation_post_process): Identity()
            )
          )
        )
        (4): Sequential(
>>>>>>> ffbe4600d423d08448584c6500b3108346e02cea
          (0): DownSample(
            (block): Sequential(
              (0): QuantizedBatchNorm2d(128, eps=1e-05, momentum=0.1, affine=True, track_running_stats=True)
…
        (1): QuantizedConv2d(256, 256, kernel_size=(3, 3), stride=(1, 1), scale=0.02257934771478176, zero_point=66, padding=(1, 1))
        (2): QuantizedConv2d(256, 256, kernel_size=(3, 3), stride=(1, 1), scale=0.02700534090399742, zero_point=77, padding=(1, 1))
        (3): QuantizedConv2d(256, 256, kernel_size=(3, 3), stride=(1, 1), scale=0.032151829451322556, zero_point=66, padding=(1, 1))
        (4): QuantizedConv2d(256, 256, kernel_size=(3, 3), stride=(1, 1), scale=0.04640219733119011, zero_point=64, padding=(1, 1))
      )
      (skip_add): QFunctional(
        scale=0.044876355677843094, zero_point=58
=======
        (0): Conv2d(128, 128, kernel_size=(1, 1), stride=(1, 1))
        (1): Conv2d(128, 256, kernel_size=(1, 1), stride=(1, 1))
        (2): Conv2d(128, 256, kernel_size=(1, 1), stride=(1, 1))
        (3): Conv2d(64, 256, kernel_size=(1, 1), stride=(1, 1))
        (4): Conv2d(32, 256, kernel_size=(1, 1), stride=(1, 1))
      )
      (smooth): ModuleList(
        (0): Conv2d(128, 256, kernel_size=(3, 3), stride=(1, 1), padding=(1, 1))
        (1): Conv2d(256, 256, kernel_size=(3, 3), stride=(1, 1), padding=(1, 1))
        (2): Conv2d(256, 256, kernel_size=(3, 3), stride=(1, 1), padding=(1, 1))
        (3): Conv2d(256, 256, kernel_size=(3, 3), stride=(1, 1), padding=(1, 1))
        (4): Conv2d(256, 256, kernel_size=(3, 3), stride=(1, 1), padding=(1, 1))
      )
      (skip_add): FloatFunctional(
>>>>>>> ffbe4600d423d08448584c6500b3108346e02cea
        (activation_post_process): Identity()
      )
    )
    (cond_FPN): RefinePyramid(
      (adaptive): ModuleList(
<<<<<<< HEAD
        (0): QuantizedConv2d(128, 128, kernel_size=(1, 1), stride=(1, 1), scale=0.024189244955778122, zero_point=67)
…
          (0): QuantizedConv2d(49, 128, kernel_size=(3, 3), stride=(1, 1), scale=0.19478288292884827, zero_point=76, padding=(1, 1))
          (1): QuantizedLeakyReLU(negative_slope=0.1)
          (2): QuantizedConv2d(128, 64, kernel_size=(3, 3), stride=(1, 1), scale=0.1040310263633728, zero_point=69, padding=(1, 1))
          (3): QuantizedLeakyReLU(negative_slope=0.1)
          (4): QuantizedConv2d(64, 32, kernel_size=(3, 3), stride=(1, 1), scale=0.07024925947189331, zero_point=69, padding=(1, 1))
          (5): QuantizedLeakyReLU(negative_slope=0.1)
          (6): QuantizedConv2d(32, 2, kernel_size=(3, 3), stride=(1, 1), scale=0.09664894640445709, zero_point=81, padding=(1, 1))
=======
          (0): Conv2d(49, 128, kernel_size=(3, 3), stride=(1, 1), padding=(1, 1))
          (1): LeakyReLU(negative_slope=0.1)
          (2): Conv2d(128, 64, kernel_size=(3, 3), stride=(1, 1), padding=(1, 1))
          (3): LeakyReLU(negative_slope=0.1)
          (4): Conv2d(64, 32, kernel_size=(3, 3), stride=(1, 1), padding=(1, 1))
          (5): LeakyReLU(negative_slope=0.1)
          (6): Conv2d(32, 2, kernel_size=(3, 3), stride=(1, 1), padding=(1, 1))
        )
        (1): Sequential(
          (0): Conv2d(49, 128, kernel_size=(3, 3), stride=(1, 1), padding=(1, 1))
          (1): LeakyReLU(negative_slope=0.1)
          (2): Conv2d(128, 64, kernel_size=(3, 3), stride=(1, 1), padding=(1, 1))
          (3): LeakyReLU(negative_slope=0.1)
          (4): Conv2d(64, 32, kernel_size=(3, 3), stride=(1, 1), padding=(1, 1))
          (5): LeakyReLU(negative_slope=0.1)
          (6): Conv2d(32, 2, kernel_size=(3, 3), stride=(1, 1), padding=(1, 1))
        )
        (2): Sequential(
          (0): Conv2d(49, 128, kernel_size=(3, 3), stride=(1, 1), padding=(1, 1))
          (1): LeakyReLU(negative_slope=0.1)
          (2): Conv2d(128, 64, kernel_size=(3, 3), stride=(1, 1), padding=(1, 1))
          (3): LeakyReLU(negative_slope=0.1)
          (4): Conv2d(64, 32, kernel_size=(3, 3), stride=(1, 1), padding=(1, 1))
          (5): LeakyReLU(negative_slope=0.1)
          (6): Conv2d(32, 2, kernel_size=(3, 3), stride=(1, 1), padding=(1, 1))
        )
        (3): Sequential(
          (0): Conv2d(49, 128, kernel_size=(3, 3), stride=(1, 1), padding=(1, 1))
          (1): LeakyReLU(negative_slope=0.1)
          (2): Conv2d(128, 64, kernel_size=(3, 3), stride=(1, 1), padding=(1, 1))
          (3): LeakyReLU(negative_slope=0.1)
          (4): Conv2d(64, 32, kernel_size=(3, 3), stride=(1, 1), padding=(1, 1))
          (5): LeakyReLU(negative_slope=0.1)
          (6): Conv2d(32, 2, kernel_size=(3, 3), stride=(1, 1), padding=(1, 1))
        )
        (4): Sequential(
          (0): Conv2d(49, 128, kernel_size=(3, 3), stride=(1, 1), padding=(1, 1))
          (1): LeakyReLU(negative_slope=0.1)
          (2): Conv2d(128, 64, kernel_size=(3, 3), stride=(1, 1), padding=(1, 1))
          (3): LeakyReLU(negative_slope=0.1)
          (4): Conv2d(64, 32, kernel_size=(3, 3), stride=(1, 1), padding=(1, 1))
          (5): LeakyReLU(negative_slope=0.1)
          (6): Conv2d(32, 2, kernel_size=(3, 3), stride=(1, 1), padding=(1, 1))
>>>>>>> ffbe4600d423d08448584c6500b3108346e02cea
        )
      )
      (netRefine): ModuleList(
        (0): Sequential(
<<<<<<< HEAD
          (0): QuantizedConv2d(512, 128, kernel_size=(3, 3), stride=(1, 1), scale=0.019182907417416573, zero_point=53, padding=(1, 1))
          (1): QuantizedLeakyReLU(negative_slope=0.1)
          (2): QuantizedConv2d(128, 64, kernel_size=(3, 3), stride=(1, 1), scale=0.013427057303488255, zero_point=61, padding=(1, 1))
…
          (2): QuantizedConv2d(128, 64, kernel_size=(3, 3), stride=(1, 1), scale=0.05530959740281105, zero_point=88, padding=(1, 1))
          (3): QuantizedLeakyReLU(negative_slope=0.1)
          (4): QuantizedConv2d(64, 32, kernel_size=(3, 3), stride=(1, 1), scale=0.03405291587114334, zero_point=49, padding=(1, 1))
          (5): QuantizedLeakyReLU(negative_slope=0.1)
          (6): QuantizedConv2d(32, 2, kernel_size=(3, 3), stride=(1, 1), scale=0.10598722100257874, zero_point=73, padding=(1, 1))
        )
      )
      (quant): Quantize(scale=tensor([0.4224]), zero_point=tensor([95]), dtype=torch.quint8)
=======
          (0): Conv2d(512, 128, kernel_size=(3, 3), stride=(1, 1), padding=(1, 1))
          (1): LeakyReLU(negative_slope=0.1)
          (2): Conv2d(128, 64, kernel_size=(3, 3), stride=(1, 1), padding=(1, 1))
          (3): LeakyReLU(negative_slope=0.1)
          (4): Conv2d(64, 32, kernel_size=(3, 3), stride=(1, 1), padding=(1, 1))
          (5): LeakyReLU(negative_slope=0.1)
          (6): Conv2d(32, 2, kernel_size=(3, 3), stride=(1, 1), padding=(1, 1))
        )
        (1): Sequential(
          (0): Conv2d(512, 128, kernel_size=(3, 3), stride=(1, 1), padding=(1, 1))
          (1): LeakyReLU(negative_slope=0.1)
          (2): Conv2d(128, 64, kernel_size=(3, 3), stride=(1, 1), padding=(1, 1))
          (3): LeakyReLU(negative_slope=0.1)
          (4): Conv2d(64, 32, kernel_size=(3, 3), stride=(1, 1), padding=(1, 1))
          (5): LeakyReLU(negative_slope=0.1)
          (6): Conv2d(32, 2, kernel_size=(3, 3), stride=(1, 1), padding=(1, 1))
        )
        (2): Sequential(
          (0): Conv2d(512, 128, kernel_size=(3, 3), stride=(1, 1), padding=(1, 1))
          (1): LeakyReLU(negative_slope=0.1)
          (2): Conv2d(128, 64, kernel_size=(3, 3), stride=(1, 1), padding=(1, 1))
          (3): LeakyReLU(negative_slope=0.1)
          (4): Conv2d(64, 32, kernel_size=(3, 3), stride=(1, 1), padding=(1, 1))
          (5): LeakyReLU(negative_slope=0.1)
          (6): Conv2d(32, 2, kernel_size=(3, 3), stride=(1, 1), padding=(1, 1))
        )
        (3): Sequential(
          (0): Conv2d(512, 128, kernel_size=(3, 3), stride=(1, 1), padding=(1, 1))
          (1): LeakyReLU(negative_slope=0.1)
          (2): Conv2d(128, 64, kernel_size=(3, 3), stride=(1, 1), padding=(1, 1))
          (3): LeakyReLU(negative_slope=0.1)
          (4): Conv2d(64, 32, kernel_size=(3, 3), stride=(1, 1), padding=(1, 1))
          (5): LeakyReLU(negative_slope=0.1)
          (6): Conv2d(32, 2, kernel_size=(3, 3), stride=(1, 1), padding=(1, 1))
        )
        (4): Sequential(
          (0): Conv2d(512, 128, kernel_size=(3, 3), stride=(1, 1), padding=(1, 1))
          (1): LeakyReLU(negative_slope=0.1)
          (2): Conv2d(128, 64, kernel_size=(3, 3), stride=(1, 1), padding=(1, 1))
          (3): LeakyReLU(negative_slope=0.1)
          (4): Conv2d(64, 32, kernel_size=(3, 3), stride=(1, 1), padding=(1, 1))
          (5): LeakyReLU(negative_slope=0.1)
          (6): Conv2d(32, 2, kernel_size=(3, 3), stride=(1, 1), padding=(1, 1))
        )
      )
      (quant): QuantStub()
      (dequant): DeQuantStub()
    )
  )
)
QuantizedModel(
  (quant): Quantize(scale=tensor([1.]), zero_point=tensor([0]), dtype=torch.quint8)
  (dequant): DeQuantize()
  (model_fp32): AFWM(
    (image_features): FeatureEncoder(
      (encoders): ModuleList(
        (0): Sequential(
          (0): DownSample(
…
